…
        "mask_ratio": 0.15,
        "use_recon": true,
        "feed_forward_dim": 256,
        "num_heads": 4,
        "num_shared_layers": 2,
        "num_branch_layers": 2,
        "dropout": 0.1
    }
}
===============================================================================================
Layer (type:depth-idx)                        Output Shape              Param #
===============================================================================================
DMRCMLP                                       --                        385,212
├─Linear: 1-1                                 [16, 12, 325, 24]         48
├─TimeEmbedding: 1-2                          [16, 12, 325, 48]         --
│    └─Embedding: 2-1                         [16, 12, 325, 24]         6,912
│    └─Embedding: 2-2                         [16, 12, 325, 24]         168
├─ModuleList: 1-3                             --                        --
│    └─STAttnBlock: 2-3                       [16, 12, 325, 144]        --
│    │    └─SelfAttentionLayer: 3-1           [16, 12, 325, 144]        158,224
│    │    └─SelfAttentionLayer: 3-2           [16, 12, 325, 144]        158,224
│    └─STAttnBlock: 2-4                       [16, 12, 325, 144]        --
│    │    └─SelfAttentionLayer: 3-3           [16, 12, 325, 144]        158,224
│    │    └─SelfAttentionLayer: 3-4           [16, 12, 325, 144]        158,224
├─Predictor: 1-4                              [16, 12, 325, 1]          --
│    └─ModuleList: 2-5                        --                        --
│    │    └─MultiLayerPerceptron: 3-5         [16, 12, 325, 144]        41,760
│    │    └─MultiLayerPerceptron: 3-6         [16, 12, 325, 144]        41,760
│    └─Linear: 2-6                            [16, 325, 12]             20,748
===============================================================================================
Total params: 1,129,504
Trainable params: 1,129,504
Non-trainable params: 0
Total mult-adds (M): 11.91
===============================================================================================
Input size (MB): 0.75
Forward/backward pass size (MB): 2847.94
Params size (MB): 2.98
Estimated Total Size (MB): 2851.66
…
