…
        "mask_ratio": 0.0,
        "use_recon": false,
        "feed_forward_dim": 256,
        "num_heads": 4,
        "num_shared_layers": 2,
        "num_branch_layers": 2,
        "dropout": 0.1
    }
}
===============================================================================================
Layer (type:depth-idx)                        Output Shape              Param #
===============================================================================================
DMRCMLP                                       --                        283,260
├─Linear: 1-1                                 [16, 12, 207, 24]         48
├─TimeEmbedding: 1-2                          [16, 12, 207, 48]         --
│    └─Embedding: 2-1                         [16, 12, 207, 24]         6,912
│    └─Embedding: 2-2                         [16, 12, 207, 24]         168
├─ModuleList: 1-3                             --                        --
│    └─STAttnBlock: 2-3                       [16, 12, 207, 144]        --
│    │    └─SelfAttentionLayer: 3-1           [16, 12, 207, 144]        158,224
│    │    └─SelfAttentionLayer: 3-2           [16, 12, 207, 144]        158,224
│    └─STAttnBlock: 2-4                       [16, 12, 207, 144]        --
│    │    └─SelfAttentionLayer: 3-3           [16, 12, 207, 144]        158,224
│    │    └─SelfAttentionLayer: 3-4           [16, 12, 207, 144]        158,224
├─Predictor: 1-4                              [16, 12, 207, 1]          --
│    └─ModuleList: 2-5                        --                        --
│    │    └─MultiLayerPerceptron: 3-5         [16, 12, 207, 144]        41,760
│    │    └─MultiLayerPerceptron: 3-6         [16, 12, 207, 144]        41,760
│    └─Linear: 2-6                            [16, 207, 12]             20,748
===============================================================================================
Total params: 1,027,552
Trainable params: 1,027,552
Non-trainable params: 0
Total mult-adds (M): 11.91
===============================================================================================
Input size (MB): 0.48
Forward/backward pass size (MB): 1813.92
Params size (MB): 2.98
Estimated Total Size (MB): 1817.37
…
